knn_adaboost_nnet/nnet_model.npz (npz, 135362 bytes, 2 tensors)

hiddenToOP f8 [90, 4]
000000 69 22 f3 e0 5a 01 d9 bf 15 62 50 40 03 2e d2 3f
       -0.3907077023291437 0.2840583923403142
000010 ef 12 ac 40 ce 06 e0 bf 9e fc 7c 21 15 89 d8 3f
       -0.5008307707908822 0.3833668543847554
000020 89 06 c8 71 46 89 e1 3f 03 84 a8 24 ef 78 e0 bf
       0.5480072233478533 -0.5147624698621488
000030 51 bc 1f c4 bb f5 e5 bf 40 36 1d 4f b1 c0 ea bf
       -0.6862467604204402 -0.8360220475385134
000040 aa 59 8d 41 7f 90 d9 3f e9 e8 04 56 e7 20 c6 bf
       0.39944440270974246 -0.17287913990168782
000050 77 cc f9 67 2e fd da bf ae cb 05 4c 7a a0 cc bf
       -0.4217029586208762 -0.2236473914341252
000060 34 14 31 bd 10 ee e5 bf 58 98 c7 d9 5c c9 ed 3f
       -0.6853107161665606 0.9308304074772975
000070 bb 5a 3e 58 53 4c e4 bf ec 84 24 34 9a f4 e6 3f
       -0.6343170856005921 0.7173586862956234
000080 8b 66 dc 05 c1 ca de bf 75 f3 33 36 a7 5d e1 3f
       -0.48112512180669204 0.5426822718287513
000090 26 fe 4e bb 77 25 a3 bf 44 d4 fb ab 03 9a d5 bf
       -0.03739523087960732 -0.3375252894905467
0000a0 05 87 e7 49 8d 40 ea 3f 41 fb 07 5f 40 49 f2 bf
       0.8203798716969862 -1.142883654799974
0000b0 46 95 d7 81 9d 49 ed bf 5f 96 d9 ec 00 ab ec 3f
       -0.9152362380961356 0.8958744646049118
0000c0 3f 10 9e 90 7c 5e d0 3f 7a 47 61 e4 49 0d df 3f
       0.25576700327679086 0.4851860742829711
0000d0 26 eb 95 f5 c7 a7 e4 3f 07 60 d5 ff a8 9b d4 3f
       0.645481090220845 0.3220007418035497
0000e0 48 a8 f3 ab 8e 13 d7 3f ff 42 ab be c0 6b d3 bf
       0.36056868354956295 -0.3034517156602731
0000f0 ab d1 cf 93 d8 39 cf 3f 13 d0 78 a7 9c ae d8 bf
       0.2439528199898978 -0.3856574664562242
000100 5e 2a 9e 73 15 e6 d5 3f 5d 67 d9 46 8e b5 df bf
       0.34216820040515994 -0.4954562847029729
000110 e9 62 d7 27 23 f3 e2 3f 41 61 c8 83 c8 58 e9 bf
       0.59217984944834 -0.7920878003961108
000120 bb 0f aa d8 e8 a1 d0 bf eb a4 96 87 56 b2 d5 3f
       -0.2598821750509576 0.33900988808689075
000130 b0 f3 7c b3 4c 8e bd bf 78 29 e1 53 4c 56 bd bf
       -0.11545256979020624 -0.11459805534210499
000140 ac aa 82 ca bb 6d e3 bf de 0b 3d f7 ab 22 d4 3f
       -0.6071452098161294 0.31461619514828765
000150 cc c6 d7 c0 a0 78 c7 bf 42 23 d0 ac 5b 00 db 3f
       -0.18336877266079055 0.4218968570353817
000160 79 54 8c 2a f4 3d e1 bf 31 38 f2 f2 8b 72 cc 3f
       -0.5388127165812328 0.2222456871281238
000170 21 ba a1 47 80 de e8 bf 36 18 ef ec 78 7c ec 3f
       -0.7771607779557749 0.8901943805328816
000180 1c cd 4c 2a 46 89 ec bf 4b 02 37 8c 99 e4 e9 3f
       -0.8917570902034728 0.8091552485057688
000190 4c 8e 1b 52 7d 4d d5 3f c8 6a d7 38 79 2a c4 3f
       0.3328545858223364 0.15754618907415918
0001a0 0d a5 f5 22 fa 5b d9 bf a0 72 1b fb a5 90 c4 3f
       -0.39623883642214325 0.16066431771368617
0001b0 db d8 ea 78 4f cc c3 3f a2 9a e4 83 9c ed dd 3f
       0.15467255977791336 0.46762764816450375
0001c0 00 47 41 49 91 53 e6 3f 77 b6 b2 98 92 5c f1 bf
       0.6977011137734905 -1.0851007427949335
0001d0 07 94 13 11 00 b2 ee bf ff ee 17 fc 2f 13 b4 bf
       -0.9592285474324179 -0.07841777710558161
0001e0 ca 14 5c f3 24 02 c9 3f 2b 45 5e 67 6b d2 e0 bf
       0.19537794001386138 -0.525685979739284
0001f0 3f e8 28 c6 bf 4b c6 bf 30 66 1e 74 59 e8 9a bf
       -0.17418667960902387 -0.02627696772797189
000200 17 ed 0e 85 97 9d ba bf 33 7f db 05 af 30 d2 3f
       -0.10396716116422443 0.2842214162064806
000210 8e be 5a 19 67 fc cb 3f 47 7e 3f 1f f3 c6 e0 bf
       0.21864022005091893 -0.5242858515084173
000220 20 d4 9d 64 77 1e d5 bf 27 50 e2 bd 16 c9 75 bf
       -0.3299845202048477 -0.005318726382160611
000230 1e 57 e5 3d 00 e9 dd bf 13 d3 56 52 c7 ce d6 3f
       -0.4673462490512622 0.35637076416905805
000240 64 6f 8b 96 f5 9a c6 bf 6e 48 c9 8f a7 a2 eb bf
       -0.17660398341001404 -0.8636052902532023
000250 53 2c 50 69 4a 0d dd bf 2a a6 16 8c 99 49 d4 bf
       -0.45393619808664204 -0.31699217491640985
000260 58 e0 a6 fe b0 97 e7 3f 2c 1c a4 b4 da 53 d3 bf
       0.7372670148533969 -0.30199306145408644
000270 01 e5 6f 62 db 3c a3 bf ac 2b ee ee e3 7f d2 bf
       -0.03757367684006319 -0.2890558083824384
000280 5f 98 27 7e d8 67 bc bf 55 e5 89 75 d1 e6 d1 3f
       -0.11095955924938171 0.27971302488693556
000290 72 2a 8e 3c 47 29 e2 bf 22 98 19 da 9d bd d8 bf
       -0.5675388510438337 -0.3865732793696016
0002a0 6f 8e 1f ae 1a 85 d6 3f 0f 0d be e7 05 5c d9 3f
       0.35187403682923607 0.3962416422948118
0002b0 46 26 ce 8e 5a d2 df bf 09 30 75 5c 14 e3 d8 bf
       -0.49721397348239227 -0.38885983494833504
0002c0 ec 25 90 e3 95 26 dc bf 54 e1 b9 af b5 db e5 3f
       -0.4398550722404184 0.6830700332784923
0002d0 b6 df fc f2 9e 8c ec 3f f3 58 38 34 32 75 b2 bf
       0.8921656366210218 -0.07210077071099245
0002e0 9f 50 3e a8 02 b3 de 3f f2 44 a2 99 df 7a e0 3f
       0.4796759264948011 0.5149991989766518
0002f0 18 0a b0 e3 d2 83 e5 bf ea 35 43 7e 4b 51 d0 3f
       -0.672341770842027 0.25496184664083776
000300 2e 57 91 0a 23 a1 d4 bf 11 f0 78 0b ce 20 c1 bf
       -0.3223350146484901 -0.13381362495590612
000310 63 4d 5f 2e f3 2b ca 3f 85 bb ec 56 37 f3 99 bf
       0.20446624531050892 -0.025341858559098113
000320 9d 25 f0 9a a8 81 98 3f e7 09 21 59 6c 8f d3 bf
       0.02393210836092906 -0.30562885955819613
000330 61 d2 73 97 c4 fc ba bf 45 b8 e0 13 d2 88 d5 3f
       -0.10541943261689248 0.3364758676642661
000340 33 75 60 b7 f4 c1 e6 bf e6 15 1e 3a 23 95 b4 bf
       -0.7111762601449868 -0.08040065926441961
000350 82 f5 e6 f7 f0 12 e2 3f bb 90 76 81 85 93 de bf
       0.5648121682967686 -0.4777539982117209
000360 06 60 ad ef 8b 2c e1 3f 4f 38 b7 1a 30 2c e3 3f
       0.5366878205486507 0.5991440316954683
000370 e4 84 29 58 e6 e3 b7 3f 28 6f 59 c9 98 63 c5 3f
       0.09332122471234389 0.16710195380698534
000380 b9 3f 14 13 fa 7a b1 3f 43 29 07 00 25 20 e6 bf
       0.06828272786901736 -0.691423893026958
000390 e0 33 96 36 80 6e eb bf 3a 05 eb 6a 90 e1 ea 3f
       -0.8572388712069561 0.8400346840136657
0003a0 e8 9f 4c 9a e5 a5 e1 bf 26 b2 8f b5 97 c4 e3 bf
       -0.5515010846765991 -0.6177481218451859
0003b0 7d d6 dd 0f b8 a1 d8 bf 89 f1 79 16 8f 84 b0 bf
       -0.3848705439516847 -0.064522688853634
0003c0 4b d6 50 00 60 c4 cc 3f eb 9e f0 b9 8a 13 e6 3f
       0.22474288955133867 0.6898854858054312
0003d0 e8 82 10 19 3c 24 c4 bf 07 77 25 f6 5e 20 e3 bf
       -0.1573557970414392 -0.5977015311761712
0003e0 a5 7f 88 fc bc 4d d7 bf eb ea 19 c0 5d c8 c2 bf
       -0.36411976491398895 -0.1467396915430393
0003f0 64 90 81 f0 f1 e1 ca bf b4 7e f9 1e 78 4a df bf
       -0.21002029651129128 -0.4889202406393267
000400 11 90 4b e2 8c 6b e1 bf 1e e1 f0 e1 b4 fc dd bf
       -0.5443787021472436 -0.4685489851431316
000410 40 c8 4c 50 2e 7c e6 3f 4c 78 bf 44 34 2a ee bf
       0.7026588028295535 -0.9426518767102237
000420 60 18 a8 09 0f 24 cf 3f ac ee b0 87 8b b7 cc bf
       0.24328792544855826 -0.22435135007423435
000430 69 74 9d 13 36 f0 e3 bf 2d 8d 0f c0 0b 4c d3 bf
       -0.6230726607424347 -0.30151647334988035
000440 05 e4 bd e6 f6 d9 b7 bf b0 1a 39 f2 41 27 f0 3f
       -0.09316962369292987 1.0095843755567948
000450 6f c8 03 24 7a b0 e0 bf 49 1a ed d1 28 24 e4 bf
       -0.5215426162160507 -0.6294139957543133
000460 61 42 5d ed b4 ee d1 3f 7e fd 80 9d 42 1a c2 3f
       0.2801945035944638 0.14142639818781427
000470 1b 89 f7 56 67 36 d6 3f 7a f9 0f 6d 00 0d de 3f
       0.34707053654541803 0.4695435586035256
000480 56 86 87 0d 19 89 e6 3f c3 0a f4 b1 2a 9e e9 bf
       0.7042355789419144 -0.8005574679994755
000490 b5 2d bd af 22 7a e2 3f 53 a3 a5 59 63 6e df bf
       0.5774091179277351 -0.4911125541171277
0004a0 c4 df 8f 49 81 3c d2 3f fa 62 f5 53 15 85 de bf
       0.2849429338816629 -0.4768727607638962
0004b0 63 67 d3 9b d2 a7 e5 3f d3 4e d4 fc e9 b7 e0 3f
       0.6767361682388863 0.5224504411766823
0004c0 5f c5 eb e8 17 d7 e3 bf 80 42 28 a8 96 19 e4 3f
       -0.620006518291273 0.6281235966035439
0004d0 18 43 4d c4 d0 b4 95 bf a6 85 3e 01 fe 5d d3 bf
       -0.021197568875609724 -0.3026118290091183
0004e0 00 1d 88 6a cb 4d d8 3f 29 fb 35 5e cc cf b8 3f
       0.37974820521817776 0.0969207506186477
0004f0 fa 41 f0 72 e6 06 e1 bf c0 27 57 42 44 68 7b 3f
       -0.5320923085110387 0.006691233289027154
000500 e3 e4 5b 40 da 74 d2 3f c0 53 1c c7 c4 14 c7 bf
       0.28838211331419766 -0.1803213093013749
000510 31 1e 68 a2 f7 6a 84 bf 45 1c 8e 1b a8 85 a8 bf
       -0.009969648975142938 -0.04789471947065541
000520 95 01 5c cf ed 16 e4 bf 95 b0 36 44 7e 08 e7 bf
       -0.6277989435184731 -0.7197867710397242
000530 97 9c e6 d1 cd 84 e3 bf a6 6a 5b e2 d2 bf bd 3f
       -0.6099614238381886 0.11620824838920871
000540 5e 31 21 92 44 95 ec bf 4f 88 e9 7c 04 cd e9 3f
       -0.8932211736769593 0.8062765540783036
000550 8b 4c 20 61 e3 57 d2 bf 9a 25 fe d8 1d 4c c8 3f
       -0.28661427006699886 0.18982289405202551
000560 06 30 db 29 47 2e e5 bf 5e 41 b4 f7 7a a8 c3 bf
       -0.6618991677764832 -0.15357911200454571
000570 b0 eb 7e 1d 0f 50 ed bf 41 60 30 b1 84 08 eb 3f
       -0.9160228324975517 0.8447898350450559
000580 e1 0a e3 18 b4 31 bf 3f a4 74 7a d4 d2 1c 9f bf
       0.12185216529455146 -0.030383390635155508
000590 e2 b9 ad 29 54 20 c5 3f 40 39 29 ec 42 78 e0 bf
       0.165049095488441 -0.514680348636638
0005a0 95 07 bf 3b 73 97 b7 3f c1 f1 88 81 6c 45 99 bf
       0.09215469559333507 -0.02467889347666286
0005b0 20 6e 7d 87 2d 92 e5 3f e5 de 27 1e 62 56 d7 bf
       0.6740939756668389 -0.3646474165429779
0005c0 2d 98 48 fe e4 4c de 3f cf 8f 52 82 88 30 e3 bf
       0.47344326813106613 -0.5996744675981008
0005d0 59 9e 2d 47 65 8d e5 3f e2 3c aa 0e b8 41 e2 bf
       0.6735102071952027 -0.5705223356652847
0005e0 0d 9b f3 c9 77 16 f1 3f 59 d3 60 df 5f c0 d5 bf
       1.0679853333219314 -0.3398666078021982
0005f0 18 3e aa 07 65 aa f2 bf b5 1a 1f c6 ae 31 f2 3f
       -1.1666002559103443 1.1371295680161613
000600 63 5e 43 1a 53 7b ba 3f 08 ed 0d 8a b2 b0 ea bf
       0.10344428435507207 -0.834069509160515
000610 e3 74 b8 f4 b2 5d e3 3f be 39 43 bc ed 84 e7 bf
       0.6051878719041749 -0.7349766423229125
000620 69 ba 48 05 d5 84 e2 3f 6e b9 17 7f 13 84 e3 bf
       0.57871485740709 -0.6098725778845571
000630 a5 d3 d7 b4 e6 b7 e4 3f 5e bc e1 00 a6 48 d7 bf
       0.6474488765803598 -0.36380910955535295
000640 68 18 70 4e 9d 0a e2 bf 4f b8 c7 e6 6d 29 c7 3f
       -0.5637957126607605 0.1809518219810706
000650 12 40 f2 27 80 06 bb 3f c6 c6 fd af 2e b5 cb 3f
       0.1055679414296267 0.2164667472202863
000660 97 18 e7 65 80 3d a4 3f 18 f4 e9 72 8f 7b e4 3f
       0.0395317196267097 0.6400830501949057
000670 97 1b e1 1b 0f 6d c9 bf c5 03 02 50 59 3a d0 bf
       -0.19864071713729167 -0.25356133282917553
000680 4a 68 02 db 29 c5 8d 3f c8 7c a2 cb 96 1c dd 3f
       0.014536215778481094 0.4548699368114737
000690 5e 58 2c 4c 7b d9 e7 bf 78 d8 df 93 22 e4 e0 3f
       -0.745298050666644 0.5278485191509068
0006a0 fe e1 3b 8b 03 51 f4 bf 8a 07 42 5b 5d 75 ec 3f
       -1.2697787703347099 0.889326742399349
0006b0 a5 3a 8c ed 4a 30 e4 bf be 34 e6 ac 3a 54 c7 3f
       -0.6308951034169082 0.18225797121377768
0006c0 35 14 fa d2 38 3d e0 bf b6 5f f9 cf 42 66 de 3f
       -0.5074733849184044 0.4749915152547105
0006d0 32 2f b2 7d d2 bd bb bf 57 e0 22 79 2b f5 e3 3f
       -0.10836520737410352 0.6236779561941245
0006e0 87 48 2e 32 0b 1e dc 3f 51 53 59 ff f9 4e dc 3f
       0.43933372402637655 0.4423203462259169
0006f0 a1 51 3b 21 e5 98 de bf b1 4b d7 cd ec e9 a4 3f
       -0.47808197255406 0.040847206236910856
000700 f2 39 0e b5 e0 6a e2 3f 1b 64 f8 87 78 3d b4 3f
       0.5755466018907198 0.07906297034823277
000710 76 ed 1c d8 27 6b eb 3f cd 80 07 52 c3 3c e8 bf
       0.856830522628498 -0.7574173547873443
000720 77 10 eb 16 ac 6c e3 3f ac 88 a8 99 8b 54 da 3f
       0.6070156524297222 0.4114102364129717
000730 f9 e4 4e 14 7e 50 bc bf ec 1a 3a fd cb 2e e3 bf
       -0.11060321803860863 -0.5994625039901087
000740 45 f7 f4 a1 71 13 b0 bf 9d b0 84 50 ab 37 c6 3f
       -0.06279669002557593 0.17357388907965268
000750 c4 e4 b8 cb 0d 44 e1 3f 67 0c 58 ee 0a f0 d6 bf
       0.5395573595953 -0.35840104366088216
000760 25 b4 b3 64 08 e6 e7 bf 27 1b a3 4c d5 9f de bf
       -0.746830174144297 -0.4785054443749907
000770 fb dd 6c ea f0 5b cd 3f 45 54 0f d6 d5 a1 e8 bf
       0.22936831900163654 -0.7697552853447936
000780 90 79 02 96 17 ec cd 3f bb e8 1e 49 fb 70 d2 bf
       0.2337674601048545 -0.2881458486623491
000790 8c d5 85 ed 21 45 d0 bf f6 bc cf df fa 13 95 3f
       -0.2542195148046964 0.020584030065887902
0007a0 78 f5 d7 ea 98 1d e3 bf 96 0b 44 77 9c 22 bf bf
       -0.5973629557408193 -0.12162187492144336
0007b0 33 53 cf c0 5e fc cf 3f c7 c0 1b 95 6a e9 da 3f
       0.2498892251448069 0.42049660264366334
0007c0 ab 05 42 98 7f d2 e1 bf 5c 93 6d 03 aa a0 e5 3f
       -0.5569456075465288 0.6758623187020976
0007d0 03 0b 12 a8 bc ed cc 3f b8 5c f0 cc f7 66 ce bf
       0.22600515562597687 -0.23751733309538792
0007e0 8a 74 a5 2e 87 46 e1 3f 9d a6 c7 5a ff ac e8 3f
       0.5398593817768795 0.7711178563160562
0007f0 d9 2e 50 b2 8e 2e e4 bf cb 3b 5e 50 f9 6e 79 3f
       -0.6306832773857095 0.006209348566598781

ipToHidden f8 [192, 90]
000000 8f 13 ce 69 bf 96 c0 bf 71 b0 fd 3b 82 33 dc 3f
       -0.12960045496234016 0.4406438432549811
000010 b7 33 1e c5 0f ea ee bf db af 2b 54 f0 52 d5 bf
       -0.966071972843216 -0.3331871816615128
000020 14 19 9e 00 d3 9c e6 bf a6 28 c3 8f 42 37 f4 bf
       -0.7066435825406949 -1.2634912124363296
000030 8d f7 29 b4 83 fc e3 bf 54 6f 8a 39 cf 2b d0 bf
       -0.6245745199992015 -0.2526739179536339
000040 b0 81 1c f3 99 3b ca bf db 4b ea 63 ef 35 b1 3f
       -0.20494388933822227 0.0672292345937388
000050 b8 3b 0d c8 e2 dd c6 bf ea ac 46 c4 c6 62 d7 3f
       -0.17864641922139213 0.3654038349875025
000060 57 b3 0e 1a 11 1d e3 bf da e1 a8 8b 58 58 e8 3f
       -0.5972981938299239 0.7607844093063776
000070 f1 73 78 a3 43 90 f0 bf 62 1f cb b4 35 f4 d4 3f
       -1.0352207551543382 0.3274053826867115
000080 17 9b 48 c6 ca c7 c0 bf 0d 15 dc fa 48 42 c0 3f
       -0.13109717065636836 0.12702286004074673
000090 b4 04 5d f1 9c d0 e6 bf f2 12 81 09 c0 fb e5 bf
       -0.7129654611709584 -0.6869812188748183
0000a0 17 fe 4a 0a 99 50 e2 3f f0 05 c5 72 12 02 ee 3f
       0.5723386002572991 0.9377529374689271
0000b0 4c 6b cd 74 5c c9 d7 bf 74 70 dd 07 bf dd d8 3f
       -0.37166510969625643 0.3885343148047078
0000c0 a0 10 5b 9b 3b 29 e8 3f be 1e 57 c7 db 26 e7 3f
       0.7550333055774168 0.7234934705129132
0000d0 9b 1e ef ae 4b bc eb bf 59 bf 9e 0c 23 19 ee bf
       -0.8667353073769449 -0.9405684706198186
0000e0 b5 5f ee f2 ca 1a e5 bf 95 39 b4 68 48 17 e9 3f
       -0.6595206017254812 0.7840921444892951
0000f0 b8 73 2a 2d 13 58 e3 bf 7c a1 a6 71 e6 42 c3 bf
       -0.6045013315339167 -0.1504791312156718
000100 9e b7 50 23 e4 da ed 3f 3b bf 1a 72 0f eb b0 3f
       0.9329701127769459 0.06608673606637876
000110 db ac e6 20 9c eb d9 3f da 73 62 dc 16 fa d7 bf
       0.4050054856586038 -0.3746392395203749
000120 e6 e1 bc ae 35 51 da 3f 2a 18 95 d6 3a df e6 3f
       0.4112066465782206 0.7147497359335422
000130 ee ca 94 23 f6 d7 ee bf 9e ed bd 5d 59 ac e0 3f
       -0.9638624854036075 0.5210387068649884
000140 49 ad 8c 03 2b 90 ef 3f 36 cf 04 54 00 cb df 3f
       0.9863486356092973 0.4967652149673428
000150 d9 40 3e d6 58 fb ca bf a4 46 19 a7 7a b9 e2 3f
       -0.21079550229160907 0.5851414931914474
000160 ca be f8 26 e6 d9 e6 bf bb c2 05 66 22 b3 af bf
       -0.7140990029492624 -0.061913561777037406
000170 b9 52 a9 fb 16 35 e9 3f ff a0 54 06 f7 60 e0 bf
       0.7877306857359009 -0.5118365405697033
000180 0c 1e 48 9b cd 8b dc bf 20 9d b1 4d 9d b6 e7 bf
       -0.44603290714482635 -0.7410418050248246
000190 bd 67 5d 00 42 57 eb bf 00 a6 54 d2 5d bf dc 3f
       -0.8544015891195539 0.44918008365729634
0001a0 b7 81 e1 b6 f5 7e e2 bf d8 1a 51 24 a2 9c da bf
       -0.5779980251209541 -0.4158101420074849
0001b0 a9 1c c4 c4 2c 97 87 3f b3 79 ab 00 f7 55 eb bf
       0.01151881194574707 -0.8542437565882238
0001c0 7b 0d 26 39 80 bc c1 3f e7 3e 4f 89 c2 93 e4 bf
       0.13856509008847326 -0.6430370981051653
0001d0 49 31 55 1d 1a fa c7 3f 6a b4 c9 6f 5f c9 da 3f
       0.18732000763191994 0.418540820281868
0001e0 6e ab e7 c7 0c 1c e8 bf e5 6f a2 e2 16 7b c3 bf
       -0.7534240631479017 -0.1521938902486674
0001f0 37 cf d3 fa 83 b2 d8 3f c9 8b e5 64 a8 f8 c5 bf
       0.3858957242475642 -0.17165093351931507
000200 f7 9e a8 81 59 fd ec bf f2 02 37 d6 da 9e bb 3f
       -0.9059264690776833 0.10789268236022645
000210 d0 08 4a dc 14 bf c6 3f ac 4b 3a 98 ed 6a b2 3f
       0.17770634418781706 0.07194409338471414
000220 a8 a0 0d 63 a6 85 eb 3f b1 7e 4f be b4 e7 da 3f
       0.8600646910317851 0.4203922136784782
000230 93 97 c0 63 a3 3c ec 3f 04 19 cf 5a e5 dc e2 bf
       0.8824021290099487 -0.5894648336041262
000240 ad 9d c1 cb 4d 16 e7 bf fa c6 33 ff a8 9d de 3f
       -0.7214726428618882 0.47837281152816014
000250 db d6 20 6a a6 fa c9 bf 83 08 85 95 33 2d e5 bf
       -0.20296173269314619 -0.6617677612596399
000260 e4 3d 82 4a a8 12 eb 3f c0 c7 6d d3 cf 09 d3 bf
       0.8460275130509527 -0.2974738659605656
000270 6a 3a 2e 7c 49 9d df 3f 8f d0 a0 3b 2d 3b de 3f
       0.4939750397397008 0.4723618585878819
000280 8e 00 da ba 75 ec e7 3f cc 8f 58 bb b8 e1 c7 3f
       0.747614731735682 0.18657597682715588
000290 b3 d7 68 15 e7 3b dc 3f 09 26 e5 cc c3 8c d6 bf
       0.4411561688497116 -0.3523416043213677
0002a0 0e b3 2e 5f 38 71 dd bf db 0f 49 87 0a 1f e9 3f
       -0.4600354127422158 0.7850392000477727
0002b0 d7 08 7c ec cd af c6 bf bf 5f ba 7a 91 25 ee 3f
       -0.1772401241979142 0.942085971549197
0002c0 28 0a e1 76 08 b1 d5 3f 9c 29 01 20 ec c1 ce 3f
       0.3389302407196362 0.24029304087373482
0002d0 c1 04 a2 7b 71 1a e9 bf 6f 33 d3 f5 67 c4 ec 3f
       -0.7844779410080706 0.8989753533620454
0002e0 e6 5d bd a1 b7 42 b0 bf 22 45 be 7a 7d ea d1 3f
       -0.06351802538608062 0.2799371431984402
0002f0 43 1a 07 5f 0b 89 c7 bf 9a 30 f8 35 c2 e7 df bf
       -0.18386976375605188 -0.49852042456110157
000300 57 ce 6d 61 c3 f2 e9 3f b2 ef ca 26 22 db cb 3f
       0.810884180346373 0.21762492078948764
000310 a6 11 72 b3 ad 8b f1 bf 36 75 26 ed 8b 00 cd 3f
       -1.0966012010186232 0.22657918052292708
000320 54 77 66 5f 55 ad d7 bf 86 2f 64 43 0f ff aa 3f
       -0.3699544364588878 0.05272720048569028
000330 c3 0e 20 33 bc 64 e8 3f c2 5f 67 05 74 f2 d1 bf
       0.762296771863895 -0.28042316940036127
000340 52 a0 0f 2c f2 38 ed 3f 9c b3 37 52 5a 4b cd 3f
       0.9132014141623677 0.22886208548098075
000350 81 8a 8a 8f 5b f8 ef bf bf b6 d1 9c 82 82 eb 3f
       -0.9990670970476715 0.8596814215540788
000360 5b 3e 76 3f f3 c3 d8 3f ba 7a ba c5 e1 97 f0 3f
       0.3869598502869615 1.0370805476920126
000370 5e 09 ce 2d ff c8 e5 bf 29 13 6d 44 00 ed e6 bf
       -0.680785741293487 -0.7164307915159941
000380 ae 29 bd 46 93 ba eb 3f 6e b6 dc 8e cd 3a da 3f
       0.8665253049487569 0.40983904792196924
000390 5e 78 f6 6a 59 bf eb bf 33 b4 60 d1 b7 ab e2 3f
       -0.8671080674282725 0.5834616746339009
0003a0 51 18 aa 1f 05 7e dd 3f 5d 4d 3a 21 66 8e ea 3f
       0.4608166512701973 0.829882683656631
0003b0 6e 23 65 4e bf 2d db 3f 30 e4 69 f3 2a 23 e7 bf
       0.42466719299095856 -0.7230429414913768
0003c0 72 6f bc 71 75 81 ee bf ea 74 2b 2e 7b 21 ee bf
       -0.9533030721099591 -0.9415870572808249
0003d0 9e 0f b6 40 02 cc f0 bf 31 e5 ec a6 33 79 dd bf
       -1.0498068359165482 -0.46052256871515157
0003e0 46 4c cc c3 8b 85 e7 3f 2c be 45 61 9c 0e b1 3f
       0.7350519966297575 0.06662919401946316
0003f0 22 2e 9b 41 ac 03 c3 3f d8 11 a6 f3 b5 58 e8 3f
       0.14854958728243256 0.7608289488567221
000400 1c fa fd b3 f4 18 e8 bf 42 a0 5d a9 98 0a d7 bf
       -0.7530463710280091 -0.360021748920648
000410 60 55 9d 26 08 18 cb 3f 22 90 f4 e4 c6 0a ee 3f
       0.2116708935306333 0.9388155433448484
000420 ce 17 3d 5f 6b 2d cc 3f 8a 62 49 9e e6 9a ee bf
       0.22013609075855672 -0.9564087955032659
000430 66 c5 77 f2 5d 0c e7 3f 29 0e 13 3d 3d d3 e0 bf
       0.7202596412372884 -0.5257860367641501
000440 0d 4f d4 f4 56 cc e6 3f bc 46 f4 77 10 24 a7 3f
       0.7124438077757717 0.045197024004790504
000450 49 97 49 cd a9 e1 e6 3f 64 19 97 ba b0 9c df 3f
       0.7150467881699366 0.4939386198206164
000460 d2 e7 cb 09 6a 74 c0 3f 6a 27 2a 0f d2 13 e6 bf
       0.128552679809046 -0.6899194999871103
000470 5a 7c 98 2e d0 2c ec bf 35 fd 11 4a 6d 8a e9 bf
       -0.880470362670063 -0.798147816341873
000480 be ec 74 75 af 4b ec bf e8 b2 b4 a4 07 c0 e7 bf
       -0.8842389387204077 -0.7421911446486691
000490 c3 d4 39 f1 18 5c e4 bf a7 8a c6 ee 2e f5 e0 3f
       -0.6362423621600545 0.5299296058259032
0004a0 f2 d4 90 41 a2 06 c0 3f 65 b0 1f c2 95 ae ee bf
       0.12520244790508844 -0.9588116446952993
0004b0 cd 2c 84 32 70 6d e8 bf 88 9a 4f 86 30 b4 ee 3f
       -0.7633591639181759 0.9594957946072364
0004c0 ea f9 f5 b4 97 34 c1 3f ab 6d 4a 1b 35 fd e2 bf
       0.13441749893168203 -0.5934091122648416
0004d0 8e 9b 36 02 d8 f2 df bf 1f 10 e6 11 c7 be e0 3f
       -0.4991970082868925 0.5232882833083784
0004e0 77 7d 09 24 22 88 e6 bf 6c 1d 65 7b 69 0b cb 3f
       -0.7041178420876538 0.21128576779504316
0004f0 3c c8 c5 c2 f6 8f ec 3f 83 10 93 bd e2 3b e6 3f
       0.8925737194206316 0.6948102667452222
000500 4b 63 bd b6 a2 75 e1 bf 32 90 5d bf ca bf 9d 3f
       -0.5456098145615241 0.02905194085123259
000510 8d 78 9f 4b 59 ba ce 3f 03 0c 40 23 b7 58 e7 3f
       0.24006191437269245 0.7295795143585341
000520 42 da fb 6b 8f ba e5 bf 1e 99 47 4b 28 76 ee bf
       -0.6790234669741226 -0.9519235105806592
000530 af bd 0d 17 7c 5e ec bf ee 0b ed ad be 20 9d bf
       -0.8865337801234342 -0.028445224156950326
000540 4b 93 ec c6 a8 06 cb 3f d0 56 8f ec f0 ba c4 3f
       0.2111407252606575 0.16195498991753832
000550 b1 3b ad f9 fc 07 d7 bf 20 37 e5 27 31 cd ec 3f
       -0.3598625601052233 0.9000478533941738
000560 6c 81 83 67 cd 8d b6 3f fb 95 81 c4 82 cd d5 bf
       0.08810123231115136 -0.34066838445718844
000570 5d fb 72 ba 60 23 b9 3f a0 6d 93 a8 39 6a e0 3f
       0.09819607307416107 0.5129669468400841
000580 28 5e 53 ac c1 ec d9 3f 57 ff e8 c6 1d 67 dd bf
       0.4050754721515397 -0.4594187204820534
000590 a3 a0 fe b3 39 78 eb bf 92 11 73 f6 57 c3 d0 bf
       -0.8584259524841581 -0.26192282740910244
0005a0 8e eb fc 6c cb 49 c6 3f 37 2a 69 11 87 8c e2 bf
       0.17412703344038188 -0.5796542491965003
0005b0 5e 00 b1 8a 12 8d e1 3f e7 a6 a1 cb 5c 76 e6 bf
       0.5484707554642332 -0.7019485451866928
0005c0 e9 a1 43 2a d2 d6 de bf 29 49 f8 64 d6 3a f2 3f
       -0.4818616307007049 1.1393646186957744
0005d0 be c7 07 cc f2 68 e3 bf bc 9d 47 a9 e5 c6 d6 3f
       -0.6065610871285043 0.3558897164461674
0005e0 be 46 23 fa 32 3c bd bf 2f 35 29 d9 88 75 ea 3f
       -0.11419981581573332 0.8268474809098388
0005f0 60 0f 0c 0b 45 00 e0 bf e4 4e 7c 14 d3 80 ec bf
       -0.5000329223407611 -0.8907256507977448
000600 ba c2 6b be ea 18 dd 3f d6 69 c6 1a 09 4d e0 3f
       0.4546458110408299 0.5094037554693454
000610 40 f1 d3 c3 84 77 f3 3f 41 be 70 03 b4 08 eb 3f
       1.2166793489005414 0.8448123995967266
000620 1e 46 7d 69 10 96 f1 bf 62 ae b2 58 25 43 e1 bf
       -1.099136745517519 -0.5394465191252034
000630 41 bb 13 1b 92 8b ce 3f 80 f9 46 96 8e 3e f0 3f
       0.2386343605243955 1.015272700329291
000640 28 38 ee ee 8a f8 ea 3f 65 af 71 31 d6 2a c8 3f
       0.8428396860706515 0.188807272093409
000650 d5 ce c3 e6 da 9a ea 3f 12 ea 3b f0 19 f8 d3 3f
       0.8314032084585629 0.31201790294986254
000660 16 6f 5d f2 a6 4f cc bf c7 c9 20 9e 77 54 be 3f
       -0.22118079027392729 0.11847636805104066
000670 d1 95 1a 94 7f 20 c3 3f 51 7b 54 2a ec 8e b5 3f
       0.1494292710460017 0.08421207459876469
000680 97 6e c1 ce e2 55 eb 3f 4e fe 01 1b c3 8e eb 3f
       0.8542341268725576 0.8611770179267724
000690 cc f8 51 88 c0 3c d5 bf ef ce ea 34 29 e3 ed 3f
       -0.33183301270026955 0.9339796098269896
0006a0 47 18 97 28 0b 6c ef bf 8a bf d8 1d 19 25 e5 bf
       -0.9819389145639058 -0.6607785780852151
0006b0 80 13 49 95 54 dd e6 bf 50 01 d7 27 7d 35 77 bf
       -0.7145178714496154 -0.005666245354803159
0006c0 2c 60 c5 0b ed 15 ed bf e2 cb d6 34 32 05 f0 3f
       -0.9089265088941878 1.001268583681615
0006d0 78 dd 53 03 fe da e4 3f 77 a5 c1 f7 ed 99 e7 bf
       0.651732450961318 -0.7375402297013086
0006e0 89 5a cb a3 c0 b7 e1 bf 1c 39 8d 34 b0 86 d5 bf
       -0.5536807250126269 -0.33634572154996234
0006f0 a1 40 20 2f 84 e5 e4 bf b6 35 38 dc b6 f4 e3 3f
       -0.6530171318463723 0.623622350803706
000700 8f 3d 48 11 84 92 c2 bf fb a8 d0 7d 65 38 eb 3f
       -0.14509631008011722 0.8506343324018241
000710 d1 a6 81 37 68 59 d5 3f fc 6f 45 de a5 37 f6 3f
       0.33358197613288804 1.388585918662101
000720 d9 25 5c 29 b5 14 e6 3f b5 63 fb c3 9a fa e9 3f
       0.6900277908145497 0.8118413760922666
000730 4a 10 2d 58 bf 0a cb bf ec 80 c3 f3 fa c1 b0 3f
       -0.21126548581571775 0.06545990420591224
000740 b7 4e 49 ff 93 09 e3 3f c8 55 db a2 99 da e1 bf
       0.594919203382651 -0.557934587554592
000750 c9 bf 9c 9b e3 e4 77 3f b7 72 80 8c 65 95 cf 3f
       0.0058335200244953945 0.2467467247050956
000760 01 02 24 54 23 51 f3 bf 86 cc a8 77 d3 88 d4 3f
       -1.2073090826744421 0.3208511990116637
000770 0d bd 80 d7 bc da c3 bf 6b 13 c3 6b 4b 0d e4 3f
       -0.15511284372903625 0.6266228775717598
000780 0f 5d ee 07 eb 86 cc bf 13 c0 fb eb 61 c0 e9 3f
       -0.22286737334500414 0.8047341927576802
000790 e2 5d 3e 33 5d c4 c3 3f 15 2b af 06 22 39 e4 bf
       0.1544300556385983 -0.6319742327262668
0007a0 4d ba 50 17 bb 35 e2 3f 5e 71 55 64 37 11 d1 3f
       0.569058938539294 0.2666758041211973
0007b0 67 ca 7a fe 3b 29 f0 bf 24 c4 b4 4d 23 9a ba bf
       -1.0100669804202427 -0.10391445777055758
0007c0 b5 26 01 11 73 a4 d2 3f cb 2c 25 61 86 a3 e4 3f
       0.2912871995982685 0.6449615380637622
0007d0 77 46 c0 d5 f4 97 f2 bf 27 f1 df ec e6 ab ec 3f
       -1.1620987271930099 0.8959841371975344
0007e0 85 4c a4 28 35 46 d0 bf 4e 87 9e 84 95 42 f3 3f
       -0.2542851349728113 1.2037558727683577
0007f0 d4 2b ed dd c6 92 ce 3f 56 82 69 28 b6 ab e5 3f
       0.23885427318813746 0.6772108830737789
